__________________________________________________________________________________________________
Layer (type)                    Output Shape         Param #     Connected to                     
==================================================================================================
input_1 (InputLayer)            (None, 512, 512, 1)  0                                            
__________________________________________________________________________________________________
conv2d_2 (Conv2D)               (None, 512, 512, 32) 320         input_1[0][0]                    
__________________________________________________________________________________________________
batch_normalization_2 (BatchNor (None, 512, 512, 32) 128         conv2d_2[0][0]                   
__________________________________________________________________________________________________
activation_2 (Activation)       (None, 512, 512, 32) 0           batch_normalization_2[0][0]      
__________________________________________________________________________________________________
max_pooling2d_1 (MaxPooling2D)  (None, 256, 256, 32) 0           activation_2[0][0]               
__________________________________________________________________________________________________
dropout_1 (Dropout)             (None, 256, 256, 32) 0           max_pooling2d_1[0][0]            
__________________________________________________________________________________________________
conv2d_4 (Conv2D)               (None, 256, 256, 64) 18496       dropout_1[0][0]                  
__________________________________________________________________________________________________
batch_normalization_4 (BatchNor (None, 256, 256, 64) 256         conv2d_4[0][0]                   
__________________________________________________________________________________________________
activation_4 (Activation)       (None, 256, 256, 64) 0           batch_normalization_4[0][0]      
__________________________________________________________________________________________________
max_pooling2d_2 (MaxPooling2D)  (None, 128, 128, 64) 0           activation_4[0][0]               
__________________________________________________________________________________________________
dropout_2 (Dropout)             (None, 128, 128, 64) 0           max_pooling2d_2[0][0]            
__________________________________________________________________________________________________
conv2d_6 (Conv2D)               (None, 128, 128, 128 73856       dropout_2[0][0]                  
__________________________________________________________________________________________________
batch_normalization_6 (BatchNor (None, 128, 128, 128 512         conv2d_6[0][0]                   
__________________________________________________________________________________________________
activation_6 (Activation)       (None, 128, 128, 128 0           batch_normalization_6[0][0]      
__________________________________________________________________________________________________
max_pooling2d_3 (MaxPooling2D)  (None, 64, 64, 128)  0           activation_6[0][0]               
__________________________________________________________________________________________________
dropout_3 (Dropout)             (None, 64, 64, 128)  0           max_pooling2d_3[0][0]            
__________________________________________________________________________________________________
conv2d_8 (Conv2D)               (None, 64, 64, 256)  295168      dropout_3[0][0]                  
__________________________________________________________________________________________________
batch_normalization_8 (BatchNor (None, 64, 64, 256)  1024        conv2d_8[0][0]                   
__________________________________________________________________________________________________
activation_8 (Activation)       (None, 64, 64, 256)  0           batch_normalization_8[0][0]      
__________________________________________________________________________________________________
max_pooling2d_4 (MaxPooling2D)  (None, 32, 32, 256)  0           activation_8[0][0]               
__________________________________________________________________________________________________
dropout_4 (Dropout)             (None, 32, 32, 256)  0           max_pooling2d_4[0][0]            
__________________________________________________________________________________________________
conv2d_10 (Conv2D)              (None, 32, 32, 512)  1180160     dropout_4[0][0]                  
__________________________________________________________________________________________________
batch_normalization_10 (BatchNo (None, 32, 32, 512)  2048        conv2d_10[0][0]                  
__________________________________________________________________________________________________
activation_10 (Activation)      (None, 32, 32, 512)  0           batch_normalization_10[0][0]     
__________________________________________________________________________________________________
conv2d_transpose_1 (Conv2DTrans (None, 64, 64, 256)  1179904     activation_10[0][0]              
__________________________________________________________________________________________________
concatenate_1 (Concatenate)     (None, 64, 64, 512)  0           conv2d_transpose_1[0][0]         
                                                                 activation_8[0][0]               
__________________________________________________________________________________________________
dropout_5 (Dropout)             (None, 64, 64, 512)  0           concatenate_1[0][0]              
__________________________________________________________________________________________________
conv2d_12 (Conv2D)              (None, 64, 64, 256)  1179904     dropout_5[0][0]                  
__________________________________________________________________________________________________
batch_normalization_12 (BatchNo (None, 64, 64, 256)  1024        conv2d_12[0][0]                  
__________________________________________________________________________________________________
activation_12 (Activation)      (None, 64, 64, 256)  0           batch_normalization_12[0][0]     
__________________________________________________________________________________________________
conv2d_transpose_2 (Conv2DTrans (None, 128, 128, 128 295040      activation_12[0][0]              
__________________________________________________________________________________________________
concatenate_2 (Concatenate)     (None, 128, 128, 256 0           conv2d_transpose_2[0][0]         
…
conv2d_14 (Conv2D)              (None, 128, 128, 128 295040      dropout_6[0][0]                  
__________________________________________________________________________________________________
batch_normalization_14 (BatchNo (None, 128, 128, 128 512         conv2d_14[0][0]                  
__________________________________________________________________________________________________
activation_14 (Activation)      (None, 128, 128, 128 0           batch_normalization_14[0][0]     
__________________________________________________________________________________________________
conv2d_transpose_3 (Conv2DTrans (None, 256, 256, 64) 73792       activation_14[0][0]              
__________________________________________________________________________________________________
concatenate_3 (Concatenate)     (None, 256, 256, 128 0           conv2d_transpose_3[0][0]         
                                                                 activation_4[0][0]               
__________________________________________________________________________________________________
dropout_7 (Dropout)             (None, 256, 256, 128 0           concatenate_3[0][0]              
__________________________________________________________________________________________________
conv2d_16 (Conv2D)              (None, 256, 256, 64) 73792       dropout_7[0][0]                  
__________________________________________________________________________________________________
batch_normalization_16 (BatchNo (None, 256, 256, 64) 256         conv2d_16[0][0]                  
__________________________________________________________________________________________________
activation_16 (Activation)      (None, 256, 256, 64) 0           batch_normalization_16[0][0]     
__________________________________________________________________________________________________
conv2d_transpose_4 (Conv2DTrans (None, 512, 512, 32) 18464       activation_16[0][0]              
__________________________________________________________________________________________________
concatenate_4 (Concatenate)     (None, 512, 512, 64) 0           conv2d_transpose_4[0][0]         
                                                                 activation_2[0][0]               
__________________________________________________________________________________________________
dropout_8 (Dropout)             (None, 512, 512, 64) 0           concatenate_4[0][0]              
__________________________________________________________________________________________________
conv2d_18 (Conv2D)              (None, 512, 512, 32) 18464       dropout_8[0][0]                  
__________________________________________________________________________________________________
batch_normalization_18 (BatchNo (None, 512, 512, 32) 128         conv2d_18[0][0]                  
__________________________________________________________________________________________________
activation_18 (Activation)      (None, 512, 512, 32) 0           batch_normalization_18[0][0]     
__________________________________________________________________________________________________
conv2d_19 (Conv2D)              (None, 512, 512, 1)  33          activation_18[0][0]              
==================================================================================================
Total params: 4,708,321
Trainable params: 4,705,377
Non-trainable params: 2,944
__________________________________________________________________________________________________
